client_test/client_part.pth (torch, 13355 bytes, 1 tensors)

weight f4 [64, 1, 7, 7]
00000000: 7b39 0080 3c31 0000 1819 0080 ca0e 0080
00000010: e125 0080 165b 0080 655c 0080 2b2b 0080
00000020: d429 0080 b00c 0000 6013 0080 5811 0080
00000030: 8c4f 0000 8f5f 0080 c543 0080 3d24 0080
00000040: 0e31 0000 db0e 0000 8b4a 0000 9e6f 0080
00000050: 315a 0080 aa06 0080 e70d 0000 2546 0080
00000060: 7b09 0080 ba01 0000 6a41 0080 9e4f 0080
00000070: 4459 0000 2705 0000 b84d 0080 0f45 0080
00000080: 3229 0000 274b 0080 6706 0080 9c29 0000
00000090: 306f 0000 f27c 0000 705c 0000 804f 0000
000000a0: ca45 0080 224f 0000 2e3c 0080 0414 0000
000000b0: 672d 0000 1820 0000 1218 0080 846f 0000
000000c0: b43b 0000 1d97 d6ba b145 5f39 40cd f5ba
000000d0: 9936 1e38 7ba7 ff39 c6af 8839 3d35 79ba
000000e0: 51b3 423a 8dcf 6fb9 87b8 25b9 0f55 93b6
000000f0: 0565 5839 bc5b 4438 a0cb b7b8 7c24 4dba
00000100: ca4b 66ba 3f50 a8b8 b0fb 11b8 f4ed 3d39
00000110: 53a5 5bb7 4e5f 11b9 c083 adba 4a57 56ba
00000120: f938 dbb9 4acd c237 ee41 ed37 1f84 8fb8
00000130: 65bb 3ab9 3178 c73a a15a 89b9 d637 a1b9
00000140: 2463 4b39 498b 31b7 268e fc37 45f8 ac38
00000150: 2d43 4a39 0d2f 26bb 0e3c 9db9 2626 a9b9
00000160: d6f8 fe38 0234 1339 0f1f 1b39 fdfb 27bb
00000170: 79d8 dc39 7787 5d3a e877 fa38 69eb 93b7
00000180: 65a9 9139 b4e9 e539 2f53 0080 4a2e 0080
00000190: f825 0000 2d02 0080 57ac 0080 0a33 0000
000001a0: 3d39 0000 a90f 0000 4322 0080 3e68 0000
000001b0: f81f 0080 a403 0000 d050 0080 f919 0080
000001c0: ec2a 0080 920a 0080 bc7e 0000 7857 0080
000001d0: c73d 0000 720c 0000 b84c 0000 fd26 0080
000001e0: 953a 0000 f981 0080 3e3d 0000 900a 0080
000001f0: 348a 0080 d756 0000 5dad 0080 9260 0000
00000200: c938 0000 cd4e 0000 6c1e 0080 ee69 0000
00000210: a11e 0080 c155 0000 994a 0000 f970 0000
00000220: 1a5d 0000 ac4c 0000 7620 0000 bf0d 0000
00000230: 3f14 0000 de8a 0000 624b 0000 195f 0000
00000240: 6b09 0000 0845 0000 3139 0000 85c3 ffba
00000250: 4350 643c 19ad 173b e5d8 953b 989f fb3b
00000260: 713b b53b 8cbd 5b3b 831c 81bb 3c15 43bb
00000270: a442 78bb 40fb 1fbb 891b 71ba 54b1 5dbb
00000280: 1f42 2ebb 235a 0dbc 1222 0abc c3d5 dabb
00000290: 421e ccbb ef3c 13bb 1cc3 05bb 5d1b 78bb
000002a0: a788 19bc 7f0d 14bc 1d8a d4bb 374a b5bb
000002b0: 5c09 a5bb bada d3bb a8fc d8bb c09d 1cbc
000002c0: 8abe bcbb c4a1 c1bb 2ea2 a6bb dbd1 a8bb
000002d0: fe75 e3bb fad2 dabb 2a59 82bb e77f 25bb
000002e0: 0dd2 49bb 4f4d 42bb d628 78bb 1adc 17bb
000002f0: 7c19 86bb 855d c1ba ef49 3f3a ce6d efb8
00000300: b9fc d13a eb77 883a 3532 2f3b 0af9 d9ba
00000310: 3827 ae3c 490e 503d 3778 99bd 62e5 883d
00000320: a46b f6bd 7390 38be 5e8f e6bd a7c8 c43d
00000330: 5fc4 333c 1ef1 143d 4dc9 823d dc38 8f3d
00000340: 6202 0bbd 2766 fcbc a1c1 293d f001 3b3d
00000350: 640a 5c3c 8990 b6bc 1bf9 8c3b 07b5 adbc
00000360: fecd f1bc 002c 4c3d b6d8 17bc 0786 423c
00000370: efac 6abb f0ed e3bc 2661 3bbd a178 c7bd
00000380: 56a1 1f3d bd1c ce3d c83e cd3d 8082 903d
00000390: 47ed 833d c73b 0f3c 0dde ad3d 4918 87bd
000003a0: 7a63 a5bc 508d ab3c d51e 18bc d257 d3bc
000003b0: a911 59ba 77c6 253b ea22 d33d 571e 103d
000003c0: 8253 a53c a338 113d 3505 553d de58 2fbc
000003d0: 0178 e5bd 76be 713b e662 b53c 3de6 8f3c
000003e0: aa85 2d3c 06f9 b13b 9f3a 2ebb 5c49 69bb
000003f0: 816a a43a 2443 7a3c 7f41 7c3c 17da 5c3c
-2.062e-41 1.7662e-41 -9.002e-42 -5.305e-42 -1.3588e-41 -3.2675e-41 -3.3145e-41 -1.5486e-41
-1.5005e-41 4.551e-42 -6.95e-42 -6.222e-42 2.8536e-41 -3.428e-41 -2.4311e-41 -1.3e-41
1.7598e-41 5.329e-42 2.6741e-41 -4.0041e-41 -3.2355e-41 -2.39e-42 4.987e-42 -2.5163e-41
-3.401e-42 6.2e-43 -2.3466e-41 -2.8561e-41 3.2022e-41 1.848e-42 -2.788e-41 -2.4774e-41
1.4778e-41 -2.696e-41 -2.297e-42 1.4927e-41 3.9887e-41 4.4822e-41 3.316e-41 2.8519e-41
-2.5036e-41 2.8388e-41 -2.1588e-41 7.18e-42 1.6287e-41 1.1513e-41 -8.635e-42 4.0004e-41
2.1417e-41 -0.001637194 0.000212929 -0.0018753186 3.7720984e-05 0.00048762173 0.00026070903 -0.00095065293
0.0007427233 -0.00022870135 -0.00015804368 -4.3908435e-06 0.00020636998 4.6815476e-05 -8.764048e-05 -0.0007825566
-0.0008785097 -8.025811e-05 -3.4805096e-05 0.00018113089 -1.309191e-05 -0.00013863781 -0.0013238117 -0.0008176459
-0.00041813383 2.3222197e-05 2.8283303e-05 -6.843381e-05 -0.00017808152 0.0015218315 -0.000261982 -0.00030749914
0.00019396521 -1.0582452e-05 3.0106934e-05 8.247843e-05 0.00019289246 -0.0025357634 -0.00029990118 -0.00032262615
0.00012158013 0.00014038387 0.00014793522 -0.0025632374 0.00042122955 0.0008450667 0.00011943263 -1.7633387e-05
0.00027782764 0.00043852406 -2.984e-41 -1.6605e-41 1.362e-41 -7.8e-43 -6.1824e-41 1.831e-41
2.0533e-41 5.618e-42 -1.2291e-41 3.7395e-41 -1.1468e-41 1.306e-42 -2.899e-41 -9.317e-42
-1.5397e-41 -3.792e-42 4.5464e-41 -3.1378e-41 2.2162e-41 4.465e-42 2.7522e-41 -1.3986e-41
2.1015e-41 -4.6625e-41 2.197e-41 -3.789e-42 -4.9578e-41 3.1152e-41 -6.2191e-41 3.4643e-41
2.037e-41 2.8268e-41 -1.0913e-41 3.8e-41 -1.0988e-41 3.0763e-41 2.676e-41 4.0527e-41
3.3399e-41 2.7505e-41 1.1645e-41 4.931e-42 7.263e-42 4.9816e-41 2.7042e-41 3.4115e-41
3.379e-42 2.4764e-41 2.0516e-41 -0.0019513225 0.0139351515 0.0023143946 0.004572975 0.007678937
0.0055307676 0.0033529727 -0.0039401664 -0.0029767295 -0.0037881518 -0.0024411231 -0.00091975235 -0.003382762
-0.0026589704 -0.008627447 -0.008430975 -0.0066783144 -0.006229193 -0.002246674 -0.0020410484 -0.0037858107
-0.009370959 -0.009036421 -0.006486191 -0.0055325287 -0.005036516 -0.006465283 -0.006621916 -0.009559095
-0.0057600187 -0.0059091765 -0.0050852513 -0.00515197 -0.006941556 -0.0066779824 -0.0039779143 -0.0025253238
-0.0030795366 -0.002964813 -0.0037866137 -0.0023171962 -0.0040923934 -0.0014752602 0.0007297089 -0.00011416861
0.0016020752 0.0010411715 0.0026732807 -0.0016630006 0.021258935 0.050794873 -0.07493632 0.06684376
-0.120322496 -0.18023853 -0.11257814 0.09608584 0.0109721115 0.03636276 0.06386051 0.06993267
-0.03393782 -0.030810429 0.041444425 0.045656145 0.013430212 -0.022285717 0.0043021566 -0.021204485
-0.02951717 0.04984665 -0.0092679765 0.011872775 -0.0035808643 -0.027823418 -0.045746945 -0.09739805
0.03897222 0.10064075 0.1002174 0.07056141 0.064417414 0.008742279 0.084896185 -0.06596429
-0.020189036 0.020941406 -0.009284695 -0.025798712 -0.00082805246 0.0025295296 0.10309394 0.035185184
0.020181421 0.035454404 0.05200692 -0.01070234 -0.112045296 0.0036887205 0.022141885 0.01756584
0.01059095 0.0054312972 -0.0026585234 -0.0035596704 0.0012543948 0.015274797 0.015396475 0.013479731
